models/interpreter/squeezenet_opt.tflite (tflite, 165888 bytes, 14 tensors)

squeezenet/conv/Conv2D i1 [64, 3, 3, 1]
0	0xf9	-7
1	0xbd	-67
2	0x12	18
3	0x31	49
4	0x33	51
5	0x4a	74
6	0xc2	-62
7	0x81	-127
8	0xf8	-8
9	0xc6	-58
10	0x88	-120
11	0x33	51
12	0xb8	-72
13	0x81	-127
14	0xdc	-36
15	0x3d	61
16	0xe6	-26
17	0x53	83
18	0xa7	-89
19	0x50	80
20	0x88	-120
21	0x81	-127
22	0xb4	-76
23	0xf4	-12
24	0xa2	-94
25	0x3a	58
26	0xc1	-63
27	0xe3	-29
28	0x4f	79
29	0x69	105
30	0xcf	-49
31	0x1d	29
32	0x81	-127
33	0x3a	58
34	0xc9	-55
35	0x83	-125
36	0x16	22
37	0x46	70
38	0xc9	-55
39	0xb4	-76
40	0xb0	-80
41	0x30	48
42	0x42	66
43	0x7f	127
44	0xb9	-71
45	0x6e	110
46	0xdc	-36
47	0xf2	-14
48	0xbf	-65
49	0x55	85
50	0x23	35
51	0x81	-127
52	0x9e	-98
53	0xff	-1
54	0x85	-123
55	0xe2	-30
56	0x25	37
57	0x07	7
58	0x32	50
59	0x81	-127
60	0xba	-70
61	0xd7	-41
62	0x89	-119
63	0xf1	-15
64	0x0b	11
65	0x0a	10
66	0x72	114
67	0xcf	-49
68	0xa7	-89
69	0x7f	127
70	0xae	-82
71	0xad	-83
72	0x29	41
73	0x81	-127
74	0x48	72
75	0xe6	-26
76	0xd1	-47
77	0xb0	-80
78	0x39	57
79	0x1c	28
80	0xfe	-2
81	0x43	67
82	0x81	-127
83	0x86	-122
84	0x16	22
85	0x1e	30
86	0x2e	46
87	0x6b	107
88	0xf4	-12
89	0xd3	-45
90	0x81	-127
91	0x3d	61
92	0x56	86
93	0x17	23
94	0x87	-121
95	0x09	9
96	0xc7	-57
97	0x2c	44
98	0x08	8
99	0xfc	-4
100	0x66	102
101	0x2c	44
102	0x70	112
103	0xda	-38
104	0x7f	127
105	0xd2	-46
106	0x08	8
107	0x94	-108
108	0x05	5
109	0x81	-127
110	0x6f	111
111	0x2c	44
112	0xfc	-4
113	0x47	71
114	0xb6	-74
115	0x83	-125
116	0x4d	77
117	0xae	-82
118	0x81	-127
119	0xa6	-90
120	0xf3	-13
121	0x30	48
122	0xd9	-39
123	0xfc	-4
124	0xfb	-5
125	0x06	6
126	0xe8	-24
127	0x5b	91
128	0xaa	-86
129	0x7f	127
130	0x3a	58
131	0x14	20
132	0xa1	-95
133	0xb3	-77
134	0x11	17
135	0x42	66
136	0xcd	-51
137	0xb9	-71
138	0xb3	-77
139	0x1e	30
140	0xf8	-8
141	0x4c	76
142	0x81	-127
143	0x6f	111
144	0x29	41
145	0xd8	-40
146	0xc3	-61
147	0xdf	-33
148	0xd5	-43
149	0x2c	44
150	0x81	-127
151	0x46	70
152	0x27	39
153	0x0b	11
154	0x1b	27
155	0xbb	-69
156	0x9d	-99
157	0xb5	-75
158	0xcb	-53
159	0x3f	63
160	0xc3	-61
161	0x7f	127
162	0x7f	127
163	0x7a	122
164	0x59	89
165	0x77	119
166	0xd2	-46
167	0xfc	-4
168	0x4e	78
169	0x3a	58
170	0x35	53
171	0x09	9
172	0x91	-111
173	0x35	53
174	0x82	-126
175	0x81	-127
176	0x39	57
177	0x4b	75
178	0xf9	-7
179	0x36	54
180	0xaf	-81
181	0x81	-127
182	0xca	-54
183	0x88	-120
184	0xa8	-88
185	0x19	25
186	0xb4	-76
187	0xf7	-9
188	0xd1	-47
189	0xca	-54
190	0x6c	108
191	0x97	-105
192	0x65	101
193	0x7f	127
194	0xcc	-52
195	0xa1	-95
196	0xdd	-35
197	0xa2	-94
198	0xed	-19
199	0x81	-127
200	0xb6	-74
201	0x4a	74
202	0x35	53
203	0xa8	-88
204	0xb6	-74
205	0x25	37
206	0x58	88
207	0x81	-127
208	0x8e	-114
209	0xe3	-29
210	0x2f	47
211	0xc7	-57
212	0x40	64
213	0x30	48
214	0xf9	-7
215	0x09	9
216	0x81	-127
217	0x19	25
218	0x3f	63
219	0xa4	-92
220	0xd3	-45
221	0x22	34
222	0xaf	-81
223	0xde	-34
224	0x43	67
225	0x0e	14
226	0x15	21
227	0x81	-127
228	0x30	48
229	0x97	-105
230	0x87	-121
231	0x2f	47
232	0xfc	-4
233	0xf0	-16
234	0x79	121
235	0x30	48
236	0x65	101
237	0xd5	-43
238	0x81	-127
239	0x8e	-114
240	0xe3	-29
241	0xfe	-2
242	0xef	-17
243	0xbe	-66
244	0x9f	-97
245	0x8a	-118
246	0x81	-127
247	0xfb	-5
248	0x08	8
249	0x2a	42
250	0xa6	-90
251	0x0f	15
252	0x81	-127
253	0x20	32
254	0x6b	107
255	0x00	0

squeezenet/fire2/squeeze1x1/Conv2D i1 [16, 1, 1, 64]
0	0x8c	-116
1	0x48	72
2	0xd8	-40
3	0x40	64
4	0xdd	-35
5	0x36	54
6	0x08	8
7	0x48	72
8	0xf6	-10
9	0x79	121
10	0x24	36
11	0x25	37
12	0x97	-105
13	0x20	32
14	0xb8	-72
15	0xeb	-21
16	0x11	17
17	0xb3	-77
18	0x2f	47
19	0x06	6
20	0xfd	-3
21	0xcc	-52
22	0x4f	79
23	0x08	8
24	0xb8	-72
25	0x31	49
26	0x57	87
27	0xc9	-55
28	0x60	96
29	0xa8	-88
30	0xba	-70
31	0xd4	-44
32	0x5b	91
33	0xb6	-74
34	0xea	-22
35	0x28	40
36	0x2f	47
37	0x05	5
38	0x3f	63
39	0x57	87
40	0xd6	-42
41	0xe4	-28
42	0x30	48
43	0xb5	-75
44	0xaa	-86
45	0x6e	110
46	0x19	25
47	0x40	64
48	0xc9	-55
49	0x5e	94
50	0x66	102
51	0x5d	93
52	0xd2	-46
53	0x26	38
54	0x5e	94
55	0x7f	127
56	0x42	66
57	0x2c	44
58	0x10	16
59	0x15	21
60	0xaf	-81
61	0x21	33
62	0xce	-50
63	0x8c	-116
64	0xce	-50
65	0x18	24
66	0x28	40
67	0xf0	-16
68	0xee	-18
69	0x01	1
70	0xc2	-62
71	0xc0	-64
72	0x3b	59
73	0x03	3
74	0x4a	74
75	0xc2	-62
76	0xf8	-8
77	0x18	24
78	0x0a	10
79	0xec	-20
80	0x69	105
81	0xee	-18
82	0x07	7
83	0xa8	-88
84	0xfa	-6
85	0xab	-85
86	0x4d	77
87	0xd4	-44
88	0x4f	79
89	0x13	19
90	0x17	23
91	0x17	23
92	0xc8	-56
93	0xec	-20
94	0xfc	-4
95	0xad	-83
96	0xff	-1
97	0x3a	58
98	0xd1	-47
99	0x36	54
100	0xf5	-11
101	0xe4	-28
102	0x50	80
103	0x1d	29
104	0x03	3
105	0xb3	-77
106	0x0b	11
107	0xcd	-51
108	0xb8	-72
109	0x7f	127
110	0x13	19
111	0x22	34
112	0x1e	30
113	0x55	85
114	0x14	20
115	0xca	-54
116	0x40	64
117	0xef	-17
118	0x22	34
119	0x74	116
120	0x30	48
121	0xf5	-11
122	0xb7	-73
123	0xbd	-67
124	0x34	52
125	0xf6	-10
126	0x04	4
127	0x3c	60
128	0x54	84
129	0xfc	-4
130	0x07	7
131	0xa9	-87
132	0xdf	-33
133	0x32	50
134	0x32	50
135	0xe9	-23
136	0x2f	47
137	0xdc	-36
138	0x03	3
139	0x04	4
140	0x47	71
141	0xf6	-10
142	0x47	71
143	0xd7	-41
144	0x35	53
145	0xe0	-32
146	0xc9	-55
147	0x2a	42
148	0xe7	-25
149	0x7f	127
150	0xf9	-7
151	0xf4	-12
152	0xd6	-42
153	0x20	32
154	0xeb	-21
155	0x2d	45
156	0x5f	95
157	0xcd	-51
158	0xb2	-78
159	0x43	67
160	0xd2	-46
161	0x3f	63
162	0x41	65
163	0x2e	46
164	0x47	71
165	0xe0	-32
166	0xf5	-11
167	0x30	48
168	0x49	73
169	0x1e	30
170	0x4c	76
171	0x46	70
172	0x2a	42
173	0x26	38
174	0x16	22
175	0x13	19
176	0x03	3
177	0x48	72
178	0x18	24
179	0xdc	-36
180	0xbe	-66
181	0xe8	-24
182	0x1a	26
183	0xe9	-23
184	0xe3	-29
185	0x26	38
186	0x1e	30
187	0x34	52
188	0x62	98
189	0xdd	-35
190	0x41	65
191	0x07	7
192	0xd6	-42
193	0x4e	78
194	0x51	81
195	0xea	-22
196	0xfb	-5
197	0xd5	-43
198	0x4b	75
199	0xe4	-28
200	0xcf	-49
201	0xc1	-63
202	0x21	33
203	0xee	-18
204	0x41	65
205	0x02	2
206	0x4b	75
207	0xb7	-73
208	0xb8	-72
209	0x1f	31
210	0x4d	77
211	0x37	55
212	0x32	50
213	0x4c	76
214	0x43	67
215	0x3c	60
216	0x25	37
217	0x19	25
218	0x81	-127
219	0x0b	11
220	0x09	9
221	0xa8	-88
222	0x2e	46
223	0xf6	-10
224	0xad	-83
225	0xe0	-32
226	0xfc	-4
227	0x04	4
228	0x3a	58
229	0x28	40
230	0x5c	92
231	0x23	35
232	0xce	-50
233	0x33	51
234	0xb5	-75
235	0x0a	10
236	0x57	87
237	0xb0	-80
238	0x08	8
239	0x21	33
240	0xe6	-26
241	0xcd	-51
242	0x1a	26
243	0xfa	-6
244	0xcd	-51
245	0xff	-1
246	0x0a	10
247	0xcb	-53
248	0xa8	-88
249	0xd7	-41
250	0xfd	-3
251	0x3b	59
252	0x74	116
253	0xee	-18
254	0xfe	-2
255	0xea	-22

squeezenet/fire2/expand1x1/Conv2D i1 [64, 1, 1, 16]
0	0xfb	-5
1	0x24	36
2	0x48	72
3	0x54	84
4	0x99	-103
5	0x03	3
6	0x43	67
7	0x3f	63
8	0xad	-83
9	0x28	40
10	0x7f	127
11	0x84	-124
12	0xbf	-65
13	0xbd	-67
14	0x5f	95
15	0x48	72
16	0x81	-127
17	0xed	-19
18	0xe2	-30
19	0xd0	-48
20	0x24	36
21	0x6e	110
22	0x4e	78
23	0xe9	-23
24	0xc4	-60
25	0x47	71
26	0x40	64
27	0x01	1
28	0x2e	46
29	0xe8	-24
30	0x55	85
31	0x53	83
32	0xbe	-66
33	0xd7	-41
34	0xb4	-76
35	0x97	-105
36	0xc0	-64
37	0x39	57
38	0x31	49
39	0x5e	94
40	0x2b	43
41	0x6c	108
42	0x31	49
43	0x9f	-97
44	0x49	73
45	0x81	-127
46	0x60	96
47	0x8a	-118
48	0x31	49
49	0x11	17
50	0x3c	60
51	0xe5	-27
52	0x7f	127
53	0xce	-50
54	0x3e	62
55	0xee	-18
56	0x32	50
57	0x09	9
58	0xaa	-86
59	0xdc	-36
60	0x02	2
61	0xca	-54
62	0xda	-38
63	0xdd	-35
64	0x7f	127
65	0x2b	43
66	0x2d	45
67	0xba	-70
68	0x21	33
69	0x5f	95
70	0x93	-109
71	0x7f	127
72	0x6f	111
73	0x5a	90
74	0xf9	-7
75	0x9a	-102
76	0xec	-20
77	0x2e	46
78	0xe5	-27
79	0x0b	11
80	0x81	-127
81	0xf5	-11
82	0x4c	76
83	0x20	32
84	0xe6	-26
85	0x3c	60
86	0x7e	126
87	0xc5	-59
88	0x3e	62
89	0x28	40
90	0xd9	-39
91	0x7d	125
92	0x3d	61
93	0x12	18
94	0xe9	-23
95	0xd5	-43
96	0x96	-106
97	0x7f	127
98	0x48	72
99	0xf4	-12
100	0xde	-34
101	0x68	104
102	0xa0	-96
103	0xe3	-29
104	0x57	87
105	0xb6	-74
106	0x43	67
107	0xbe	-66
108	0xc5	-59
109	0x0e	14
110	0x97	-105
111	0x46	70
112	0xbf	-65
113	0xd3	-45
114	0x3b	59
115	0x7f	127
116	0xda	-38
117	0x15	21
118	0x08	8
119	0x13	19
120	0x9a	-102
121	0x2a	42
122	0x32	50
123	0x6d	109
124	0xfa	-6
125	0x18	24
126	0xe3	-29
127	0x24	36
128	0xef	-17
129	0xea	-22
130	0x42	66
131	0xb2	-78
132	0x66	102
133	0xd1	-47
134	0xf9	-7
135	0xe3	-29
136	0x5d	93
137	0x13	19
138	0x3c	60
139	0x79	121
140	0xc5	-59
141	0x94	-108
142	0x7f	127
143	0x10	16
144	0xac	-84
145	0xd8	-40
146	0x69	105
147	0xb9	-71
148	0x3e	62
149	0xc1	-63
150	0x6b	107
151	0xab	-85
152	0x7f	127
153	0xb9	-71
154	0x07	7
155	0xb9	-71
156	0x41	65
157	0x3c	60
158	0x5a	90
159	0x45	69
160	0x00	0
161	0xab	-85
162	0x07	7
163	0x45	69
164	0x81	-127
165	0xfa	-6
166	0x78	120
167	0xd8	-40
168	0xf2	-14
169	0x9e	-98
170	0xee	-18
171	0x11	17
172	0x41	65
173	0xb1	-79
174	0x13	19
175	0x5d	93
176	0xe5	-27
177	0x7a	122
178	0x94	-108
179	0x42	66
180	0x0a	10
181	0xdc	-36
182	0xef	-17
183	0xb5	-75
184	0x65	101
185	0xbf	-65
186	0x4f	79
187	0xc2	-62
188	0x63	99
189	0xc2	-62
190	0x16	22
191	0x81	-127
192	0x35	53
193	0x91	-111
194	0x96	-106
195	0xd7	-41
196	0x25	37
197	0xc2	-62
198	0xb4	-76
199	0x81	-127
200	0xdf	-33
201	0x5d	93
202	0xbe	-66
203	0x0f	15
204	0x0f	15
205	0x91	-111
206	0xbb	-69
207	0xf5	-11
208	0xa6	-90
209	0xf6	-10
210	0xda	-38
211	0x95	-107
212	0xa3	-93
213	0x78	120
214	0x52	82
215	0x88	-120
216	0x66	102
217	0xea	-22
218	0xef	-17
219	0x4e	78
220	0x81	-127
221	0x54	84
222	0xa6	-90
223	0xa3	-93
224	0x7c	124
225	0x43	67
226	0xe3	-29
227	0xdd	-35
228	0x74	116
229	0xcd	-51
230	0xc3	-61
231	0x08	8
232	0x17	23
233	0x5a	90
234	0xfe	-2
235	0xec	-20
236	0x18	24
237	0xb5	-75
238	0x1b	27
239	0x81	-127
240	0x96	-106
241	0x17	23
242	0x7f	127
243	0x5e	94
244	0xf5	-11
245	0x61	97
246	0x66	102
247	0xf3	-13
248	0xf4	-12
249	0x2b	43
250	0xa1	-95
251	0x43	67
252	0x60	96
253	0x2b	43
254	0xb2	-78
255	0x5f	95

squeezenet/fire2/expand3x3/Conv2D i1 [64, 3, 3, 16]
0	0x66	102
1	0x2b	43
2	0xb8	-72
3	0x24	36
4	0x0a	10
5	0x22	34
6	0xb6	-74
7	0x3a	58
8	0x39	57
9	0x38	56
10	0xf5	-11
11	0x2a	42
12	0x2b	43
13	0x2b	43
14	0x28	40
15	0x1f	31
16	0x57	87
17	0x3d	61
18	0x2b	43
19	0x3c	60
20	0x00	0
21	0xd3	-45
22	0xc3	-61
23	0xdd	-35
24	0x26	38
25	0xf2	-14
26	0xb8	-72
27	0xf2	-14
28	0x42	66
29	0x14	20
30	0xcb	-53
31	0x21	33
32	0x3b	59
33	0x0b	11
34	0xb7	-73
35	0x31	49
36	0x29	41
37	0x25	37
38	0x9d	-99
39	0x34	52
40	0x12	18
41	0x2b	43
42	0xf8	-8
43	0x0f	15
44	0xda	-38
45	0xed	-19
46	0xf2	-14
47	0xf7	-9
48	0x66	102
49	0x62	98
50	0xe6	-26
51	0x47	71
52	0x19	25
53	0xd3	-45
54	0xf3	-13
55	0x06	6
56	0x1d	29
57	0xf5	-11
58	0xcc	-52
59	0xc4	-60
60	0x2a	42
61	0xf4	-12
62	0x43	67
63	0xe8	-24
64	0x50	80
65	0x49	73
66	0xc8	-56
67	0xcb	-53
68	0x08	8
69	0x13	19
70	0xc8	-56
71	0x05	5
72	0x2a	42
73	0xf9	-7
74	0x15	21
75	0xca	-54
76	0xc9	-55
77	0x15	21
78	0x20	32
79	0xd7	-41
80	0x41	65
81	0xee	-18
82	0x2c	44
83	0x29	41
84	0x65	101
85	0x3a	58
86	0xae	-82
87	0x32	50
88	0x30	48
89	0x33	51
90	0x42	66
91	0xe0	-32
92	0x0f	15
93	0x11	17
94	0x2b	43
95	0x07	7
96	0x32	50
97	0x5d	93
98	0x1a	26
99	0xe4	-28
100	0x49	73
101	0xf2	-14
102	0x08	8
103	0x3e	62
104	0x3f	63
105	0x61	97
106	0xe4	-28
107	0xec	-20
108	0xf8	-8
109	0x30	48
110	0xe1	-31
111	0xef	-17
112	0x3e	62
113	0x48	72
114	0x22	34
115	0xba	-70
116	0x7f	127
117	0x09	9
118	0xf3	-13
119	0xfd	-3
120	0xe4	-28
121	0x43	67
122	0x0d	13
123	0x23	35
124	0xe1	-31
125	0x3e	62
126	0xc4	-60
127	0x04	4
128	0xf2	-14
129	0x35	53
130	0x25	37
131	0xdc	-36
132	0x47	71
133	0x15	21
134	0x0e	14
135	0x0f	15
136	0x37	55
137	0xea	-22
138	0x2e	46
139	0xdf	-33
140	0xde	-34
141	0x21	33
142	0x3f	63
143	0xda	-38
144	0x22	34
145	0x19	25
146	0x0f	15
147	0xfa	-6
148	0x44	68
149	0x09	9
150	0xbf	-65
151	0xcb	-53
152	0x07	7
153	0x45	69
154	0xe5	-27
155	0xd5	-43
156	0x24	36
157	0xe9	-23
158	0xdf	-33
159	0x14	20
160	0x20	32
161	0x19	25
162	0xe3	-29
163	0xed	-19
164	0x1a	26
165	0x3e	62
166	0xc3	-61
167	0xcb	-53
168	0xf0	-16
169	0xc4	-60
170	0x6f	111
171	0x38	56
172	0x14	20
173	0xc5	-59
174	0xf9	-7
175	0xfc	-4
176	0xea	-22
177	0xeb	-21
178	0xf5	-11
179	0xe7	-25
180	0x11	17
181	0xf2	-14
182	0xbc	-68
183	0x3d	61
184	0x44	68
185	0xe2	-30
186	0x15	21
187	0xd8	-40
188	0x59	89
189	0x17	23
190	0x33	51
191	0xc3	-61
192	0xb5	-75
193	0x2f	47
194	0x33	51
195	0xff	-1
196	0xf5	-11
197	0x0c	12
198	0xa1	-95
199	0xd7	-41
200	0x1d	29
201	0x17	23
202	0x2d	45
203	0xd5	-43
204	0x00	0
205	0x35	53
206	0x1c	28
207	0xb7	-73
208	0xb4	-76
209	0x5c	92
210	0x21	33
211	0xba	-70
212	0x0d	13
213	0x32	50
214	0xef	-17
215	0x1a	26
216	0xfd	-3
217	0x09	9
218	0x62	98
219	0xd4	-44
220	0x13	19
221	0xcb	-53
222	0xe9	-23
223	0xf4	-12
224	0x12	18
225	0x46	70
226	0xfc	-4
227	0xd1	-47
228	0x7f	127
229	0xd4	-44
230	0xaf	-81
231	0x35	53
232	0x2c	44
233	0xca	-54
234	0x23	35
235	0x2a	42
236	0xda	-38
237	0x42	66
238	0x15	21
239	0xd6	-42
240	0xc8	-56
241	0xda	-38
242	0x08	8
243	0xff	-1
244	0x70	112
245	0xc7	-57
246	0x1b	27
247	0x21	33
248	0xdb	-37
249	0xb1	-79
250	0x51	81
251	0xbf	-65
252	0x1f	31
253	0xb7	-73
254	0x28	40
255	0xc6	-58

squeezenet/fire3/squeeze1x1/Conv2D i1 [16, 1, 1, 128]
0	0xe9	-23
1	0xdb	-37
2	0x19	25
3	0x6d	109
4	0xa7	-89
5	0x2d	45
6	0xb3	-77
7	0x52	82
8	0x37	55
9	0xae	-82
10	0x1b	27
11	0xd3	-45
12	0x5c	92
13	0x5a	90
14	0xae	-82
15	0xef	-17
16	0x1e	30
17	0xf4	-12
18	0x20	32
19	0x0a	10
20	0xd5	-43
21	0xdf	-33
22	0x2e	46
23	0x44	68
24	0x68	104
25	0x4a	74
26	0x24	36
27	0xe5	-27
28	0x43	67
29	0x72	114
30	0x19	25
31	0x39	57
32	0x69	105
33	0x01	1
34	0x1b	27
35	0xea	-22
36	0xeb	-21
37	0xd3	-45
38	0x4a	74
39	0x93	-109
40	0xa8	-88
41	0x29	41
42	0x5e	94
43	0x0d	13
44	0xc7	-57
45	0xe5	-27
46	0xf4	-12
47	0x84	-124
48	0x70	112
49	0xb6	-74
50	0x72	114
51	0xab	-85
52	0x14	20
53	0x94	-108
54	0x93	-109
55	0x78	120
56	0x1a	26
57	0x81	-127
58	0x10	16
59	0x29	41
60	0xe3	-29
61	0xce	-50
62	0x5c	92
63	0xd6	-42
64	0x32	50
65	0xa0	-96
66	0xb4	-76
67	0xd2	-46
68	0x05	5
69	0x44	68
70	0x45	69
71	0xa0	-96
72	0xa7	-89
73	0xe7	-25
74	0x13	19
75	0xb2	-78
76	0x63	99
77	0x96	-106
78	0x2e	46
79	0xb6	-74
80	0xa4	-92
81	0xdc	-36
82	0xae	-82
83	0x98	-104
84	0x25	37
85	0x0c	12
86	0xd1	-47
87	0x2c	44
88	0x0c	12
89	0x22	34
90	0x82	-126
91	0xac	-84
92	0xed	-19
93	0xac	-84
94	0x84	-124
95	0x31	49
96	0xde	-34
97	0x9b	-101
98	0x6b	107
99	0x24	36
100	0xb0	-80
101	0xe1	-31
102	0x71	113
103	0x64	100
104	0xc9	-55
105	0x0e	14
106	0x6b	107
107	0xa6	-90
108	0xbb	-69
109	0xf9	-7
110	0xd7	-41
111	0xb7	-73
112	0x92	-110
113	0x04	4
114	0x89	-119
115	0xab	-85
116	0xee	-18
117	0x39	57
118	0x19	25
119	0x9f	-97
120	0xb8	-72
121	0xd6	-42
122	0xcd	-51
123	0xd4	-44
124	0x17	23
125	0x3f	63
126	0xb7	-73
127	0xe9	-23
128	0xeb	-21
129	0x2c	44
130	0xda	-38
131	0xf4	-12
132	0xce	-50
133	0x3b	59
134	0xd1	-47
135	0x39	57
136	0xec	-20
137	0xdb	-37
138	0x1f	31
139	0xc8	-56
140	0x07	7
141	0xd3	-45
142	0x2d	45
143	0x18	24
144	0xa3	-93
145	0xc6	-58
146	0x1d	29
147	0xd8	-40
148	0xbd	-67
149	0x4e	78
150	0x23	35
151	0xf4	-12
152	0x0d	13
153	0xcc	-52
154	0xc9	-55
155	0x5f	95
156	0xd9	-39
157	0x1b	27
158	0xea	-22
159	0xf2	-14
160	0x4d	77
161	0xda	-38
162	0xb7	-73
163	0xf4	-12
164	0x9d	-99
165	0xe3	-29
166	0xef	-17
167	0x41	65
168	0x0c	12
169	0x55	85
170	0xdf	-33
171	0xbe	-66
172	0xaa	-86
173	0xa9	-87
174	0x96	-106
175	0xf9	-7
176	0x4a	74
177	0x2a	42
178	0xd9	-39
179	0xd3	-45
180	0x01	1
181	0x1a	26
182	0xf4	-12
183	0xd2	-46
184	0x0d	13
185	0xe3	-29
186	0xfb	-5
187	0xf2	-14
188	0x81	-127
189	0x8f	-113
190	0x0a	10
191	0xf1	-15
192	0x4e	78
193	0x34	52
194	0x05	5
195	0x22	34
196	0x3f	63
197	0xbd	-67
198	0x00	0
199	0xe9	-23
200	0xda	-38
201	0xbb	-69
202	0x12	18
203	0xfb	-5
204	0x55	85
205	0x47	71
206	0xb7	-73
207	0xbf	-65
208	0x23	35
209	0x9e	-98
210	0x53	83
211	0xb0	-80
212	0xf0	-16
213	0xd0	-48
214	0xd4	-44
215	0xe8	-24
216	0x48	72
217	0xa4	-92
218	0xfe	-2
219	0x27	39
220	0xf1	-15
221	0x4b	75
222	0x1b	27
223	0xf3	-13
224	0xea	-22
225	0xfa	-6
226	0xa9	-87
227	0x00	0
228	0xb5	-75
229	0xe7	-25
230	0x30	48
231	0x56	86
232	0x2d	45
233	0xd9	-39
234	0x30	48
235	0x52	82
236	0xda	-38
237	0x08	8
238	0x1d	29
239	0x44	68
240	0x3f	63
241	0xc6	-58
242	0xd0	-48
243	0x19	25
244	0x22	34
245	0x44	68
246	0xfa	-6
247	0x31	49
248	0xf0	-16
249	0x2a	42
250	0x3c	60
251	0x0e	14
252	0x04	4
253	0x08	8
254	0x9c	-100
255	0x40	64

squeezenet/fire3/expand1x1/Conv2D i1 [64, 1, 1, 16]
0	0x75	117
1	0x1b	27
2	0x0e	14
3	0xb2	-78
4	0x81	-127
5	0x9d	-99
6	0x31	49
7	0x64	100
8	0x84	-124
9	0x0e	14
10	0x58	88
11	0x16	22
12	0x63	99
13	0x19	25
14	0x12	18
15	0xe6	-26
16	0x31	49
17	0x48	72
18	0x76	118
19	0x77	119
20	0x66	102
21	0x77	119
22	0xe2	-30
23	0xd7	-41
24	0x81	-127
25	0x64	100
26	0xbf	-65
27	0xe2	-30
28	0x4d	77
29	0xce	-50
30	0xb6	-74
31	0xec	-20
32	0xc8	-56
33	0x88	-120
34	0xd3	-45
35	0x65	101
36	0x81	-127
37	0xdc	-36
38	0x16	22
39	0x55	85
40	0xc3	-61
41	0x8f	-113
42	0x1a	26
43	0x3e	62
44	0xb0	-80
45	0xb8	-72
46	0x96	-106
47	0x96	-106
48	0x9a	-102
49	0x9e	-98
50	0x89	-119
51	0xd3	-45
52	0x81	-127
53	0x2f	47
54	0x8a	-118
55	0x93	-109
56	0xce	-50
57	0x0e	14
58	0x6d	109
59	0x71	113
60	0x74	116
61	0x6a	106
62	0xbf	-65
63	0xc7	-57
64	0x57	87
65	0xde	-34
66	0xd6	-42
67	0x4b	75
68	0x5b	91
69	0x1e	30
70	0x7f	127
71	0xee	-18
72	0xdd	-35
73	0xf8	-8
74	0x45	69
75	0x3a	58
76	0xe1	-31
77	0x4d	77
78	0x56	86
79	0x45	69
80	0xdd	-35
81	0x94	-108
82	0x6d	109
83	0x26	38
84	0x94	-108
85	0x3b	59
86	0xb8	-72
87	0xee	-18
88	0x5d	93
89	0x16	22
90	0xa1	-95
91	0x81	-127
92	0xc7	-57
93	0x27	39
94	0xc1	-63
95	0xca	-54
96	0x2c	44
97	0x00	0
98	0x25	37
99	0xc6	-58
100	0xdc	-36
101	0x58	88
102	0x46	70
103	0xad	-83
104	0x3d	61
105	0xae	-82
106	0x62	98
107	0x81	-127
108	0xc9	-55
109	0x60	96
110	0x41	65
111	0xd2	-46
112	0xf9	-7
113	0x06	6
114	0x8f	-113
115	0x07	7
116	0x39	57
117	0x3e	62
118	0x7f	127
119	0x47	71
120	0xd7	-41
121	0xbf	-65
122	0x3f	63
123	0xcc	-52
124	0xf7	-9
125	0xfc	-4
126	0x40	64
127	0xf1	-15
128	0x6b	107
129	0x22	34
130	0x4f	79
131	0x9a	-102
132	0x0a	10
133	0xb8	-72
134	0x0a	10
135	0x55	85
136	0x81	-127
137	0x46	70
138	0xb7	-73
139	0x5c	92
140	0x5b	91
141	0x25	37
142	0x54	84
143	0x24	36
144	0x91	-111
145	0xda	-38
146	0x29	41
147	0x2d	45
148	0x22	34
149	0x50	80
150	0xdb	-37
151	0xbe	-66
152	0xde	-34
153	0x85	-123
154	0x33	51
155	0xc5	-59
156	0x81	-127
157	0x8d	-115
158	0xff	-1
159	0x75	117
160	0xc6	-58
161	0xcf	-49
162	0x2c	44
163	0xb1	-79
164	0x2e	46
165	0x7a	122
166	0xcb	-53
167	0xd8	-40
168	0xa1	-95
169	0xb8	-72
170	0x0b	11
171	0x3e	62
172	0xd3	-45
173	0x5d	93
174	0x7f	127
175	0xd2	-46
176	0xa3	-93
177	0xc4	-60
178	0x11	17
179	0x57	87
180	0xa0	-96
181	0x51	81
182	0x53	83
183	0xd0	-48
184	0xc8	-56
185	0x7f	127
186	0xa2	-94
187	0x0f	15
188	0x49	73
189	0x46	70
190	0x59	89
191	0xef	-17
192	0x51	81
193	0xc3	-61
194	0x66	102
195	0x95	-107
196	0x3c	60
197	0x60	96
198	0x9a	-102
199	0xf2	-14
200	0x1a	26
201	0xd1	-47
202	0x81	-127
203	0x29	41
204	0x8f	-113
205	0x65	101
206	0xbc	-68
207	0x58	88
208	0x39	57
209	0xeb	-21
210	0x99	-103
211	0xf5	-11
212	0xf0	-16
213	0xd3	-45
214	0x6c	108
215	0xf6	-10
216	0x95	-107
217	0xf6	-10
218	0xc3	-61
219	0x77	119
220	0x7f	127
221	0x53	83
222	0x28	40
223	0x88	-120
224	0x42	66
225	0x3c	60
226	0xd5	-43
227	0x20	32
228	0x81	-127
229	0xdc	-36
230	0x22	34
231	0x8b	-117
232	0x4b	75
233	0xb5	-75
234	0xbd	-67
235	0x32	50
236	0x8b	-117
237	0x31	49
238	0x28	40
239	0x0f	15
240	0x08	8
241	0x36	54
242	0xdc	-36
243	0x7f	127
244	0x2d	45
245	0x50	80
246	0x4e	78
247	0xa6	-90
248	0xd6	-42
249	0xb6	-74
250	0x0b	11
251	0x3d	61
252	0xc2	-62
253	0xf0	-16
254	0x3b	59
255	0x0b	11

squeezenet/fire3/expand3x3/Conv2D i1 [64, 3, 3, 16]
0	0x12	18
1	0x2d	45
2	0x31	49
3	0xe6	-26
4	0xd1	-47
5	0x07	7
6	0xf3	-13
7	0xf4	-12
8	0x33	51
9	0xc9	-55
10	0x2e	46
11	0xe8	-24
12	0xd0	-48
13	0xd2	-46
14	0xf9	-7
15	0xff	-1
16	0x3c	60
17	0xc8	-56
18	0x30	48
19	0xf9	-7
20	0xcc	-52
21	0x3a	58
22	0xc3	-61
23	0xf8	-8
24	0xd8	-40
25	0xf4	-12
26	0xdc	-36
27	0xce	-50
28	0x0d	13
29	0xe4	-28
30	0xbc	-68
31	0x15	21
32	0xf0	-16
33	0xe5	-27
34	0x07	7
35	0xe6	-26
36	0x0e	14
37	0x20	32
38	0xd4	-44
39	0x0b	11
40	0xf8	-8
41	0x10	16
42	0x0e	14
43	0xec	-20
44	0x3a	58
45	0x1a	26
46	0x3a	58
47	0xe0	-32
48	0xde	-34
49	0xd1	-47
50	0x7f	127
51	0x26	38
52	0xca	-54
53	0xd5	-43
54	0x20	32
55	0xf4	-12
56	0x28	40
57	0xc0	-64
58	0xcd	-51
59	0xb3	-77
60	0xce	-50
61	0xfa	-6
62	0x23	35
63	0xc6	-58
64	0xd2	-46
65	0x32	50
66	0xff	-1
67	0xd5	-43
68	0xc9	-55
69	0xf2	-14
70	0xf9	-7
71	0xeb	-21
72	0xcb	-53
73	0x28	40
74	0xa9	-87
75	0xbc	-68
76	0xd1	-47
77	0xf1	-15
78	0x00	0
79	0x01	1
80	0x31	49
81	0xde	-34
82	0x0d	13
83	0xee	-18
84	0x08	8
85	0x16	22
86	0x12	18
87	0x17	23
88	0xa3	-93
89	0x23	35
90	0xf9	-7
91	0x26	38
92	0x24	36
93	0x0d	13
94	0x34	52
95	0xe8	-24
96	0x37	55
97	0xfa	-6
98	0x3d	61
99	0x2a	42
100	0xe4	-28
101	0xd3	-45
102	0xca	-54
103	0xd0	-48
104	0x52	82
105	0x03	3
106	0x21	33
107	0xbf	-65
108	0x2e	46
109	0xc5	-59
110	0xff	-1
111	0xd4	-44
112	0xec	-20
113	0x04	4
114	0x0c	12
115	0xfc	-4
116	0x1b	27
117	0xd9	-39
118	0x25	37
119	0x15	21
120	0x27	39
121	0xcb	-53
122	0xd3	-45
123	0xc3	-61
124	0xe0	-32
125	0x25	37
126	0xcd	-51
127	0xd5	-43
128	0x01	1
129	0x09	9
130	0xb9	-71
131	0x19	25
132	0xe1	-31
133	0x17	23
134	0x38	56
135	0x24	36
136	0xbe	-66
137	0xc5	-59
138	0x05	5
139	0xf4	-12
140	0x0e	14
141	0x20	32
142	0x0f	15
143	0xd4	-44
144	0x21	33
145	0x11	17
146	0x93	-109
147	0x04	4
148	0x30	48
149	0xf4	-12
150	0xf3	-13
151	0x33	51
152	0xb9	-71
153	0xc2	-62
154	0x04	4
155	0x33	51
156	0xe0	-32
157	0x10	16
158	0xd0	-48
159	0xe9	-23
160	0xf4	-12
161	0x05	5
162	0xce	-50
163	0x00	0
164	0xe5	-27
165	0x1c	28
166	0x4b	75
167	0x09	9
168	0xf2	-14
169	0xc2	-62
170	0x2a	42
171	0x50	80
172	0xfd	-3
173	0x25	37
174	0x16	22
175	0xe2	-30
176	0xfc	-4
177	0xd8	-40
178	0xca	-54
179	0xc7	-57
180	0xc0	-64
181	0xe4	-28
182	0xfe	-2
183	0xe2	-30
184	0xdb	-37
185	0xcd	-51
186	0xd0	-48
187	0x2d	45
188	0xc6	-58
189	0xb9	-71
190	0xe3	-29
191	0xee	-18
192	0xe6	-26
193	0x1b	27
194	0x13	19
195	0xea	-22
196	0x38	56
197	0x40	64
198	0x4d	77
199	0x3a	58
200	0xf0	-16
201	0x15	21
202	0xce	-50
203	0x16	22
204	0x00	0
205	0x0c	12
206	0xd7	-41
207	0xf0	-16
208	0x1b	27
209	0x2f	47
210	0xce	-50
211	0x01	1
212	0xdb	-37
213	0x0f	15
214	0x1a	26
215	0xe5	-27
216	0xf2	-14
217	0x2c	44
218	0x36	54
219	0x4d	77
220	0x1c	28
221	0x07	7
222	0xbd	-67
223	0x0b	11
224	0x0e	14
225	0x2f	47
226	0xcd	-51
227	0xe5	-27
228	0xdc	-36
229	0x10	16
230	0x48	72
231	0x30	48
232	0xb0	-80
233	0xfc	-4
234	0xd4	-44
235	0x7f	127
236	0x0c	12
237	0x0d	13
238	0xce	-50
239	0xbc	-68
240	0xef	-17
241	0x29	41
242	0xa5	-91
243	0xf1	-15
244	0xf0	-16
245	0x13	19
246	0x26	38
247	0x27	39
248	0xef	-17
249	0x21	33
250	0x0b	11
251	0x53	83
252	0x07	7
253	0x1a	26
254	0xf3	-13
255	0xb2	-78

squeezenet/fire4/squeeze1x1/Conv2D i1 [32, 1, 1, 128]
0	0xeb	-21
1	0x23	35
2	0x01	1
3	0xee	-18
4	0x39	57
5	0xbe	-66
6	0xf8	-8
7	0x21	33
8	0xe4	-28
9	0xb4	-76
10	0xff	-1
11	0x3c	60
12	0x1e	30
13	0x05	5
14	0xf5	-11
15	0x40	64
16	0xbd	-67
17	0xde	-34
18	0xff	-1
19	0x1b	27
20	0xed	-19
21	0xe0	-32
22	0x12	18
23	0xfa	-6
24	0x3f	63
25	0x1d	29
26	0xeb	-21
27	0xdc	-36
28	0x14	20
29	0x3f	63
30	0xd1	-47
31	0xec	-20
32	0xca	-54
33	0xb6	-74
34	0x05	5
35	0xd8	-40
36	0xdb	-37
37	0xcf	-49
38	0xe1	-31
39	0xe5	-27
40	0xf6	-10
41	0x30	48
42	0x12	18
43	0xc9	-55
44	0xeb	-21
45	0xfb	-5
46	0xca	-54
47	0x02	2
48	0xc4	-60
49	0xd0	-48
50	0xed	-19
51	0xf7	-9
52	0x0d	13
53	0xe7	-25
54	0x00	0
55	0xd8	-40
56	0x36	54
57	0x1a	26
58	0xcd	-51
59	0x09	9
60	0xb8	-72
61	0xd5	-43
62	0x39	57
63	0x14	20
64	0xfc	-4
65	0x23	35
66	0xcd	-51
67	0xd1	-47
68	0xd9	-39
69	0x25	37
70	0x0f	15
71	0x19	25
72	0x13	19
73	0x0b	11
74	0xd3	-45
75	0x3f	63
76	0xe7	-25
77	0x27	39
78	0xdf	-33
79	0x27	39
80	0x2a	42
81	0xf7	-9
82	0xe0	-32
83	0xda	-38
84	0x13	19
85	0x10	16
86	0xac	-84
87	0x28	40
88	0xda	-38
89	0xcf	-49
90	0x41	65
91	0x0a	10
92	0x26	38
93	0x1f	31
94	0xc6	-58
95	0x1a	26
96	0xc5	-59
97	0xf3	-13
98	0xf0	-16
99	0x41	65
100	0x18	24
101	0x34	52
102	0x2b	43
103	0xc5	-59
104	0x24	36
105	0x14	20
106	0xe2	-30
107	0xe7	-25
108	0xda	-38
109	0x2e	46
110	0xf5	-11
111	0xc9	-55
112	0xbc	-68
113	0xee	-18
114	0xec	-20
115	0x36	54
116	0xcb	-53
117	0xcb	-53
118	0x0c	12
119	0xe7	-25
120	0xff	-1
121	0xe7	-25
122	0x2b	43
123	0x81	-127
124	0x08	8
125	0x1b	27
126	0x9c	-100
127	0x0b	11
128	0x09	9
129	0x12	18
130	0xf0	-16
131	0x42	66
132	0x14	20
133	0x25	37
134	0xcf	-49
135	0x0e	14
136	0x02	2
137	0x0e	14
138	0xe9	-23
139	0xb1	-79
140	0xc7	-57
141	0x2e	46
142	0xc3	-61
143	0x40	64
144	0xb7	-73
145	0xec	-20
146	0x4e	78
147	0x1f	31
148	0x28	40
149	0x4a	74
150	0xda	-38
151	0xe4	-28
152	0xad	-83
153	0x14	20
154	0x4b	75
155	0x3e	62
156	0x24	36
157	0x0b	11
158	0xd7	-41
159	0x46	70
160	0xff	-1
161	0xed	-19
162	0xcf	-49
163	0xea	-22
164	0x07	7
165	0xea	-22
166	0x3d	61
167	0xfe	-2
168	0x3b	59
169	0xad	-83
170	0x90	-112
171	0x3a	58
172	0xcf	-49
173	0xc5	-59
174	0x42	66
175	0x06	6
176	0x24	36
177	0xf0	-16
178	0x4f	79
179	0x44	68
180	0xeb	-21
181	0xee	-18
182	0xcb	-53
183	0x31	49
184	0xbe	-66
185	0x0d	13
186	0xf1	-15
187	0xca	-54
188	0xec	-20
189	0x2b	43
190	0xf8	-8
191	0xc6	-58
192	0x08	8
193	0xee	-18
194	0x4d	77
195	0xbb	-69
196	0xba	-70
197	0xb8	-72
198	0xe0	-32
199	0x2c	44
200	0xa1	-95
201	0xcd	-51
202	0x2c	44
203	0xcf	-49
204	0x19	25
205	0xd0	-48
206	0xac	-84
207	0xc8	-56
208	0x3d	61
209	0xff	-1
210	0xd1	-47
211	0xa7	-89
212	0x11	17
213	0xd8	-40
214	0x16	22
215	0xa3	-93
216	0xfb	-5
217	0x29	41
218	0x32	50
219	0xba	-70
220	0xfb	-5
221	0x52	82
222	0xc1	-63
223	0x0d	13
224	0x21	33
225	0xaa	-86
226	0xd3	-45
227	0x1b	27
228	0x17	23
229	0x31	49
230	0x40	64
231	0x28	40
232	0x0a	10
233	0x19	25
234	0x81	-127
235	0x26	38
236	0x92	-110
237	0xfe	-2
238	0xe0	-32
239	0x06	6
240	0xf9	-7
241	0xfc	-4
242	0x94	-108
243	0x5b	91
244	0xbd	-67
245	0xfd	-3
246	0xc0	-64
247	0xd8	-40
248	0x49	73
249	0xd4	-44
250	0xfa	-6
251	0x5b	91
252	0xc5	-59
253	0x32	50
254	0xc9	-55
255	0xcc	-52

squeezenet/fire4/expand1x1/Conv2D i1 [128, 1, 1, 32]
0	0x49	73
1	0x30	48
2	0xd5	-43
3	0x31	49
4	0x50	80
5	0x26	38
6	0x3c	60
7	0xe8	-24
8	0xdc	-36
9	0x65	101
10	0xc1	-63
11	0xbb	-69
12	0xfe	-2
13	0xc2	-62
14	0x63	99
15	0x6e	110
16	0x33	51
17	0xe6	-26
18	0xe0	-32
19	0xbc	-68
20	0x0f	15
21	0xcc	-52
22	0x0f	15
23	0x7f	127
24	0x18	24
25	0xbb	-69
26	0x4f	79
27	0xe8	-24
28	0xe4	-28
29	0x54	84
30	0x45	69
31	0xe6	-26
32	0xcd	-51
33	0x94	-108
34	0x90	-112
35	0x06	6
36	0x24	36
37	0xc5	-59
38	0xf9	-7
39	0x36	54
40	0xd9	-39
41	0x03	3
42	0x33	51
43	0x7f	127
44	0xf7	-9
45	0x5f	95
46	0xfb	-5
47	0xee	-18
48	0x3b	59
49	0x8d	-115
50	0xf3	-13
51	0x25	37
52	0x7f	127
53	0xde	-34
54	0x53	83
55	0xa8	-88
56	0xff	-1
57	0x06	6
58	0xfd	-3
59	0x23	35
60	0x68	104
61	0xe3	-29
62	0xf6	-10
63	0x3c	60
64	0xcd	-51
65	0x3a	58
66	0x6b	107
67	0xc1	-63
68	0xb1	-79
69	0x8b	-117
70	0xbd	-67
71	0x53	83
72	0x1a	26
73	0xf1	-15
74	0xd8	-40
75	0x8d	-115
76	0x1c	28
77	0x1e	30
78	0xad	-83
79	0xbf	-65
80	0xbc	-68
81	0x81	-127
82	0x3c	60
83	0xf8	-8
84	0xa4	-92
85	0x6b	107
86	0xde	-34
87	0xc9	-55
88	0x18	24
89	0xa0	-96
90	0x66	102
91	0xaf	-81
92	0x5d	93
93	0x7c	124
94	0x4d	77
95	0x1c	28
96	0x73	115
97	0x3f	63
98	0x37	55
99	0xf8	-8
100	0x34	52
101	0xd3	-45
102	0x30	48
103	0x03	3
104	0x16	22
105	0x41	65
106	0x65	101
107	0xe0	-32
108	0x34	52
109	0x00	0
110	0xf1	-15
111	0x47	71
112	0xb7	-73
113	0xe4	-28
114	0xd9	-39
115	0x44	68
116	0xad	-83
117	0x8b	-117
118	0x49	73
119	0x16	22
120	0x69	105
121	0x81	-127
122	0x9d	-99
123	0x66	102
124	0xcf	-49
125	0x23	35
126	0x91	-111
127	0x2c	44
128	0x98	-104
129	0x66	102
130	0x49	73
131	0x20	32
132	0xb8	-72
133	0x7f	127
134	0x4d	77
135	0xec	-20
136	0xef	-17
137	0xf2	-14
138	0xe0	-32
139	0xe1	-31
140	0xe5	-27
141	0x2b	43
142	0xfd	-3
143	0x16	22
144	0xdf	-33
145	0x46	70
146	0xca	-54
147	0xf2	-14
148	0xc3	-61
149	0x12	18
150	0xa1	-95
151	0x2f	47
152	0x1f	31
153	0xfe	-2
154	0x5a	90
155	0x3a	58
156	0xff	-1
157	0x1d	29
158	0xd0	-48
159	0x05	5
160	0x26	38
161	0xc6	-58
162	0xd4	-44
163	0x7f	127
164	0xf1	-15
165	0xf5	-11
166	0xbb	-69
167	0x15	21
168	0x09	9
169	0x6b	107
170	0xda	-38
171	0xbe	-66
172	0x14	20
173	0xdb	-37
174	0x89	-119
175	0x1a	26
176	0x3e	62
177	0x37	55
178	0x14	20
179	0xf4	-12
180	0xc9	-55
181	0x65	101
182	0xd2	-46
183	0xd0	-48
184	0x27	39
185	0xcd	-51
186	0x98	-104
187	0x4c	76
188	0x31	49
189	0xb6	-74
190	0xc7	-57
191	0xd8	-40
192	0xa6	-90
193	0xb4	-76
194	0xcf	-49
195	0x7e	126
196	0xfd	-3
197	0x7f	127
198	0x12	18
199	0xcf	-49
200	0xff	-1
201	0x15	21
202	0xef	-17
203	0x18	24
204	0xe1	-31
205	0x16	22
206	0x41	65
207	0x21	33
208	0xef	-17
209	0x17	23
210	0xbf	-65
211	0x46	70
212	0xf2	-14
213	0xe8	-24
214	0x45	69
215	0x37	55
216	0xe9	-23
217	0x50	80
218	0x23	35
219	0x43	67
220	0xd7	-41
221	0xcd	-51
222	0x4b	75
223	0xf3	-13
224	0x4b	75
225	0xe2	-30
226	0xb2	-78
227	0x74	116
228	0xd4	-44
229	0x62	98
230	0x00	0
231	0x5c	92
232	0x25	37
233	0x7f	127
234	0xfb	-5
235	0x12	18
236	0x49	73
237	0x34	52
238	0xdc	-36
239	0x46	70
240	0xca	-54
241	0xf9	-7
242	0x0d	13
243	0xce	-50
244	0x6a	106
245	0x36	54
246	0x98	-104
247	0xe2	-30
248	0x08	8
249	0x10	16
250	0xba	-70
251	0x51	81
252	0xc8	-56
253	0xeb	-21
254	0x3e	62
255	0xc3	-61

squeezenet/fire4/expand3x3/Conv2D i1 [128, 3, 3, 32]
0	0x32	50
1	0xf0	-16
2	0x07	7
3	0x06	6
4	0xd6	-42
5	0x20	32
6	0xf9	-7
7	0xe1	-31
8	0xf6	-10
9	0x27	39
10	0xfb	-5
11	0xae	-82
12	0x00	0
13	0x37	55
14	0x1b	27
15	0x30	48
16	0xf6	-10
17	0xe9	-23
18	0x08	8
19	0x1d	29
20	0x00	0
21	0x25	37
22	0xf5	-11
23	0x5e	94
24	0xe3	-29
25	0xe9	-23
26	0x1e	30
27	0xdc	-36
28	0xe7	-25
29	0x17	23
30	0x06	6
31	0xa4	-92
32	0x22	34
33	0xec	-20
34	0x17	23
35	0x1d	29
36	0x1c	28
37	0x1a	26
38	0xf5	-11
39	0xdf	-33
40	0x12	18
41	0xf6	-10
42	0xf4	-12
43	0xe4	-28
44	0x28	40
45	0xdf	-33
46	0xcc	-52
47	0xf1	-15
48	0xe8	-24
49	0xdc	-36
50	0xd1	-47
51	0x21	33
52	0xf9	-7
53	0xe8	-24
54	0xa6	-90
55	0x24	36
56	0x1f	31
57	0x0f	15
58	0x07	7
59	0xdb	-37
60	0xc6	-58
61	0x27	39
62	0xdb	-37
63	0xc2	-62
64	0xdf	-33
65	0x1e	30
66	0x22	34
67	0x33	51
68	0xfa	-6
69	0x05	5
70	0xf0	-16
71	0xe1	-31
72	0x38	56
73	0xfd	-3
74	0x14	20
75	0xaf	-81
76	0x11	17
77	0xee	-18
78	0xc8	-56
79	0xef	-17
80	0x23	35
81	0x05	5
82	0x14	20
83	0xff	-1
84	0x27	39
85	0xdc	-36
86	0xfe	-2
87	0x6b	107
88	0x24	36
89	0xe4	-28
90	0xe6	-26
91	0x1d	29
92	0xc7	-57
93	0xfb	-5
94	0xdb	-37
95	0xed	-19
96	0x33	51
97	0x29	41
98	0x00	0
99	0x3d	61
100	0xed	-19
101	0x01	1
102	0xcf	-49
103	0xf6	-10
104	0x12	18
105	0xff	-1
106	0x0c	12
107	0xde	-34
108	0x09	9
109	0x0d	13
110	0x0a	10
111	0x07	7
112	0xd4	-44
113	0xe8	-24
114	0xe2	-30
115	0xf9	-7
116	0xdd	-35
117	0xf1	-15
118	0xcb	-53
119	0x59	89
120	0xd0	-48
121	0xe1	-31
122	0xee	-18
123	0xed	-19
124	0xd8	-40
125	0x2c	44
126	0x16	22
127	0xf7	-9
128	0x1e	30
129	0xe7	-25
130	0xf2	-14
131	0x04	4
132	0x05	5
133	0xf7	-9
134	0xf2	-14
135	0xf3	-13
136	0x0e	14
137	0x00	0
138	0x10	16
139	0x05	5
140	0xfa	-6
141	0x2b	43
142	0x0c	12
143	0x34	52
144	0xc9	-55
145	0xf3	-13
146	0xf7	-9
147	0xd2	-46
148	0x32	50
149	0xeb	-21
150	0xc4	-60
151	0x49	73
152	0x23	35
153	0xf3	-13
154	0x0d	13
155	0xef	-17
156	0x0e	14
157	0x10	16
158	0x1b	27
159	0x1d	29
160	0x10	16
161	0x0f	15
162	0x11	17
163	0x3a	58
164	0x03	3
165	0xd4	-44
166	0xf7	-9
167	0x28	40
168	0xfb	-5
169	0x1a	26
170	0xe3	-29
171	0xda	-38
172	0x2a	42
173	0x14	20
174	0x08	8
175	0xf0	-16
176	0xd9	-39
177	0xfc	-4
178	0x2e	46
179	0x17	23
180	0xe5	-27
181	0xdb	-37
182	0x0b	11
183	0x57	87
184	0xf5	-11
185	0x1c	28
186	0xdc	-36
187	0xe4	-28
188	0xc3	-61
189	0xfd	-3
190	0x15	21
191	0xc3	-61
192	0x06	6
193	0xe7	-25
194	0x2d	45
195	0x21	33
196	0xfe	-2
197	0x11	17
198	0xf9	-7
199	0x1d	29
200	0x0c	12
201	0x0f	15
202	0x20	32
203	0x94	-108
204	0x37	55
205	0x28	40
206	0x09	9
207	0x17	23
208	0xfe	-2
209	0xef	-17
210	0xd1	-47
211	0xd4	-44
212	0xf6	-10
213	0x18	24
214	0xae	-82
215	0x54	84
216	0x06	6
217	0x24	36
218	0x03	3
219	0xfb	-5
220	0xf1	-15
221	0x20	32
222	0x11	17
223	0xcd	-51
224	0x15	21
225	0x26	38
226	0x14	20
227	0x3b	59
228	0xda	-38
229	0xf6	-10
230	0xf6	-10
231	0x3e	62
232	0x0f	15
233	0xe1	-31
234	0xf1	-15
235	0xce	-50
236	0x04	4
237	0x06	6
238	0x19	25
239	0x01	1
240	0x08	8
241	0x16	22
242	0x06	6
243	0xee	-18
244	0x08	8
245	0x02	2
246	0xc3	-61
247	0x2d	45
248	0x06	6
249	0xde	-34
250	0x0a	10
251	0xfb	-5
252	0x13	19
253	0x07	7
254	0x04	4
255	0xdf	-33

squeezenet/fire5/squeeze1x1/Conv2D i1 [32, 1, 1, 256]
0	0x47	71
1	0x27	39
2	0x0b	11
3	0xfe	-2
4	0xf4	-12
5	0x56	86
6	0x0a	10
7	0xbd	-67
8	0x25	37
9	0xe7	-25
10	0x43	67
11	0xcb	-53
12	0xe9	-23
13	0x44	68
14	0xdb	-37
15	0x3e	62
16	0xf3	-13
17	0x18	24
18	0x06	6
19	0x4d	77
20	0x36	54
21	0xe8	-24
22	0xd4	-44
23	0xe4	-28
24	0x35	53
25	0x03	3
26	0x3a	58
27	0xc5	-59
28	0x00	0
29	0x19	25
30	0x14	20
31	0x24	36
32	0xa1	-95
33	0xcf	-49
34	0xb4	-76
35	0xb8	-72
36	0xea	-22
37	0x0d	13
38	0xc6	-58
39	0xcc	-52
40	0x2b	43
41	0x30	48
42	0x51	81
43	0xff	-1
44	0xa0	-96
45	0xbc	-68
46	0x0d	13
47	0xf7	-9
48	0x4e	78
49	0xde	-34
50	0x10	16
51	0x4e	78
52	0x39	57
53	0x4a	74
54	0x28	40
55	0x1f	31
56	0x4b	75
57	0xab	-85
58	0xd5	-43
59	0xa7	-89
60	0x10	16
61	0xa8	-88
62	0xe2	-30
63	0xbb	-69
64	0xcc	-52
65	0xfe	-2
66	0x16	22
67	0xda	-38
68	0xc5	-59
69	0xe9	-23
70	0x24	36
71	0xf1	-15
72	0x22	34
73	0xb1	-79
74	0x18	24
75	0x0f	15
76	0x47	71
77	0xf2	-14
78	0xe9	-23
79	0xda	-38
80	0x1d	29
81	0xbb	-69
82	0xcd	-51
83	0xe1	-31
84	0x11	17
85	0xfa	-6
86	0xd3	-45
87	0x0b	11
88	0x32	50
89	0xba	-70
90	0xcb	-53
91	0x0c	12
92	0xd4	-44
93	0x16	22
94	0xe0	-32
95	0xb4	-76
96	0x47	71
97	0x23	35
98	0xfc	-4
99	0xb4	-76
100	0x1b	27
101	0x32	50
102	0xb6	-74
103	0x36	54
104	0x23	35
105	0x19	25
106	0xc7	-57
107	0xc1	-63
108	0x45	69
109	0x35	53
110	0x05	5
111	0xd1	-47
112	0x1f	31
113	0x4a	74
114	0xea	-22
115	0x14	20
116	0x32	50
117	0xc5	-59
118	0xde	-34
119	0xca	-54
120	0x3d	61
121	0xc4	-60
122	0x0e	14
123	0x5c	92
124	0xc0	-64
125	0xfb	-5
126	0x4d	77
127	0x0e	14
128	0xa8	-88
129	0x09	9
130	0xfe	-2
131	0x9c	-100
132	0xec	-20
133	0xea	-22
134	0x0d	13
135	0x3c	60
136	0xc9	-55
137	0x8e	-114
138	0xb5	-75
139	0xde	-34
140	0xaf	-81
141	0xcb	-53
142	0x42	66
143	0xf1	-15
144	0x4d	77
145	0xdc	-36
146	0xc0	-64
147	0x8a	-118
148	0x47	71
149	0xfe	-2
150	0x2f	47
151	0x15	21
152	0x2a	42
153	0xfc	-4
154	0xb6	-74
155	0x32	50
156	0x03	3
157	0xbf	-65
158	0xd2	-46
159	0x52	82
160	0x25	37
161	0xfb	-5
162	0xae	-82
163	0x0d	13
164	0xac	-84
165	0xd6	-42
166	0xd7	-41
167	0xe2	-30
168	0xf8	-8
169	0xec	-20
170	0x51	81
171	0x05	5
172	0xf0	-16
173	0xe5	-27
174	0x08	8
175	0xf9	-7
176	0x11	17
177	0x1a	26
178	0xd2	-46
179	0xca	-54
180	0x25	37
181	0xfb	-5
182	0xc5	-59
183	0x53	83
184	0xdc	-36
185	0x2f	47
186	0xea	-22
187	0x37	55
188	0x13	19
189	0x2a	42
190	0xd6	-42
191	0x08	8
192	0x97	-105
193	0xd8	-40
194	0x2d	45
195	0xfa	-6
196	0xe8	-24
197	0x1d	29
198	0xd4	-44
199	0x2b	43
200	0xc7	-57
201	0xd3	-45
202	0x01	1
203	0xc4	-60
204	0xc5	-59
205	0xcb	-53
206	0x30	48
207	0xff	-1
208	0xd6	-42
209	0xee	-18
210	0x31	49
211	0x45	69
212	0x03	3
213	0x1b	27
214	0x1e	30
215	0xcd	-51
216	0x37	55
217	0x10	16
218	0xcc	-52
219	0x3c	60
220	0x0b	11
221	0x9b	-101
222	0x31	49
223	0xf2	-14
224	0xfd	-3
225	0x02	2
226	0xc5	-59
227	0xf5	-11
228	0x0a	10
229	0xe2	-30
230	0xa2	-94
231	0xa0	-96
232	0xd6	-42
233	0xda	-38
234	0x27	39
235	0xcf	-49
236	0x2a	42
237	0x2a	42
238	0xd3	-45
239	0xbc	-68
240	0x38	56
241	0x43	67
242	0x12	18
243	0xcc	-52
244	0xd1	-47
245	0x3b	59
246	0x81	-127
247	0x02	2
248	0x14	20
249	0xa5	-91
250	0x20	32
251	0xbe	-66
252	0x16	22
253	0x42	66
254	0xb2	-78
255	0xe7	-25

squeezenet/fire5/expand1x1/Conv2D i1 [128, 1, 1, 32]
0	0xf9	-7
1	0x53	83
2	0x29	41
3	0xa2	-94
4	0x39	57
5	0xed	-19
6	0xa9	-87
7	0xd8	-40
8	0x0f	15
9	0x4a	74
10	0x2b	43
11	0xfe	-2
12	0x30	48
13	0x56	86
14	0x07	7
15	0x3b	59
16	0x74	116
17	0xb6	-74
18	0xb0	-80
19	0xee	-18
20	0x6e	110
21	0x54	84
22	0xf0	-16
23	0x19	25
24	0x39	57
25	0xbf	-65
26	0x16	22
27	0x72	114
28	0xd9	-39
29	0xa0	-96
30	0x7f	127
31	0x0c	12
32	0xd7	-41
33	0x13	19
34	0xe0	-32
35	0xfa	-6
36	0x7e	126
37	0x76	118
38	0x41	65
39	0xb8	-72
40	0x2f	47
41	0x7f	127
42	0xf4	-12
43	0xcc	-52
44	0xf3	-13
45	0xdd	-35
46	0xac	-84
47	0x6d	109
48	0xc5	-59
49	0x3b	59
50	0x9f	-97
51	0x50	80
52	0xd9	-39
53	0x4d	77
54	0xe7	-25
55	0xb3	-77
56	0x47	71
57	0xf0	-16
58	0x25	37
59	0xf4	-12
60	0x48	72
61	0x58	88
62	0x3f	63
63	0xce	-50
64	0x81	-127
65	0x47	71
66	0x6c	108
67	0x71	113
68	0x74	116
69	0x6c	108
70	0xda	-38
71	0x0f	15
72	0x01	1
73	0x87	-121
74	0x8d	-115
75	0xfb	-5
76	0xcc	-52
77	0xac	-84
78	0x60	96
79	0x0b	11
80	0xe6	-26
81	0xe9	-23
82	0xcf	-49
83	0xbf	-65
84	0x03	3
85	0xe3	-29
86	0xe7	-25
87	0x8a	-118
88	0x84	-124
89	0x0b	11
90	0x5a	90
91	0x9c	-100
92	0x35	53
93	0xb6	-74
94	0x61	97
95	0xc7	-57
96	0xd8	-40
97	0xa2	-94
98	0x4b	75
99	0x94	-108
100	0x64	100
101	0xb7	-73
102	0x27	39
103	0x73	115
104	0x9a	-102
105	0x9d	-99
106	0xa2	-94
107	0x23	35
108	0x3e	62
109	0x81	-127
110	0x50	80
111	0x66	102
112	0x50	80
113	0x05	5
114	0x75	117
115	0x35	53
116	0x4a	74
117	0xb7	-73
118	0xf1	-15
119	0xee	-18
120	0x17	23
121	0x32	50
122	0xd6	-42
123	0xb0	-80
124	0x49	73
125	0x6d	109
126	0x12	18
127	0x14	20
128	0x0d	13
129	0x79	121
130	0x9e	-98
131	0xe3	-29
132	0x49	73
133	0xad	-83
134	0x4f	79
135	0x11	17
136	0xa6	-90
137	0xdb	-37
138	0x9d	-99
139	0x7f	127
140	0x81	-127
141	0x8d	-115
142	0xaa	-86
143	0xd7	-41
144	0x6c	108
145	0x93	-109
146	0x97	-105
147	0xe3	-29
148	0x92	-110
149	0xbb	-69
150	0xf2	-14
151	0xe4	-28
152	0x96	-106
153	0x93	-109
154	0xe9	-23
155	0xb2	-78
156	0xcf	-49
157	0x28	40
158	0xe8	-24
159	0xca	-54
160	0x81	-127
161	0x5f	95
162	0x71	113
163	0x19	25
164	0x33	51
165	0x53	83
166	0x6b	107
167	0x17	23
168	0xe4	-28
169	0x84	-124
170	0xee	-18
171	0x5d	93
172	0xe1	-31
173	0xb4	-76
174	0x5f	95
175	0xbe	-66
176	0xb7	-73
177	0x03	3
178	0x6c	108
179	0x1d	29
180	0xb3	-77
181	0xc7	-57
182	0xb7	-73
183	0xfe	-2
184	0x20	32
185	0x61	97
186	0xb5	-75
187	0xb2	-78
188	0xf9	-7
189	0x0c	12
190	0xd8	-40
191	0x5a	90
192	0x55	85
193	0x10	16
194	0xd1	-47
195	0x41	65
196	0x96	-106
197	0x3c	60
198	0x06	6
199	0x9d	-99
200	0xdb	-37
201	0x8e	-114
202	0xdb	-37
203	0x52	82
204	0x33	51
205	0xbd	-67
206	0x79	121
207	0xb1	-79
208	0x21	33
209	0x11	17
210	0x32	50
211	0xd7	-41
212	0x22	34
213	0x5e	94
214	0xdf	-33
215	0xf4	-12
216	0x73	115
217	0xb8	-72
218	0x52	82
219	0xd9	-39
220	0x55	85
221	0xfe	-2
222	0x6e	110
223	0x81	-127
224	0xb6	-74
225	0x4c	76
226	0x2f	47
227	0xa4	-92
228	0x7f	127
229	0x54	84
230	0xac	-84
231	0x23	35
232	0xd2	-46
233	0x44	68
234	0xfd	-3
235	0xed	-19
236	0xe0	-32
237	0xd5	-43
238	0x60	96
239	0xdb	-37
240	0x49	73
241	0x51	81
242	0x15	21
243	0x6b	107
244	0xd9	-39
245	0x28	40
246	0xa9	-87
247	0xef	-17
248	0xf7	-9
249	0xcb	-53
250	0x1d	29
251	0xc8	-56
252	0xec	-20
253	0x44	68
254	0xd2	-46
255	0x56	86

squeezenet/fire5/expand3x3/Conv2D i1 [128, 3, 3, 32]
0	0xbb	-69
1	0x02	2
2	0xe5	-27
3	0x1d	29
4	0xea	-22
5	0x3a	58
6	0x97	-105
7	0x0c	12
8	0x2d	45
9	0xc4	-60
10	0xf7	-9
11	0x35	53
12	0xf3	-13
13	0xa2	-94
14	0xb6	-74
15	0xa4	-92
16	0x9c	-100
17	0xc4	-60
18	0xe6	-26
19	0xc3	-61
20	0xc2	-62
21	0x26	38
22	0xc9	-55
23	0xf8	-8
24	0xcc	-52
25	0xa7	-89
26	0x14	20
27	0xbd	-67
28	0x2a	42
29	0x34	52
30	0xc2	-62
31	0xc3	-61
32	0x15	21
33	0xc9	-55
34	0xed	-19
35	0xb2	-78
36	0xf1	-15
37	0x22	34
38	0x93	-109
39	0x06	6
40	0x43	67
41	0xd7	-41
42	0x35	53
43	0x22	34
44	0x0a	10
45	0xaa	-86
46	0x18	24
47	0xc1	-63
48	0x23	35
49	0x22	34
50	0xcb	-53
51	0xb9	-71
52	0x1f	31
53	0x1a	26
54	0xd4	-44
55	0xd0	-48
56	0xbd	-67
57	0x14	20
58	0xf4	-12
59	0x2a	42
60	0x45	69
61	0xed	-19
62	0xd8	-40
63	0x2e	46
64	0xed	-19
65	0xc1	-63
66	0xb5	-75
67	0xcb	-53
68	0xfc	-4
69	0x4d	77
70	0xd3	-45
71	0x2b	43
72	0xde	-34
73	0xab	-85
74	0x07	7
75	0x03	3
76	0xe5	-27
77	0x1f	31
78	0x98	-104
79	0xec	-20
80	0x3a	58
81	0x16	22
82	0xdb	-37
83	0xb6	-74
84	0xdc	-36
85	0xae	-82
86	0xbe	-66
87	0x25	37
88	0xf8	-8
89	0xdf	-33
90	0x20	32
91	0xfb	-5
92	0x2c	44
93	0xcf	-49
94	0xab	-85
95	0x40	64
96	0x0d	13
97	0x2b	43
98	0xdb	-37
99	0xe7	-25
100	0x36	54
101	0xfa	-6
102	0xce	-50
103	0x0f	15
104	0x40	64
105	0x91	-111
106	0xf4	-12
107	0xdc	-36
108	0xd4	-44
109	0xb3	-77
110	0xed	-19
111	0xbc	-68
112	0x02	2
113	0x28	40
114	0xb9	-71
115	0x08	8
116	0xe1	-31
117	0xcb	-53
118	0x4f	79
119	0x17	23
120	0xc8	-56
121	0xf8	-8
122	0xf9	-7
123	0x81	-127
124	0xb0	-80
125	0x47	71
126	0x19	25
127	0xb3	-77
128	0xfb	-5
129	0x0d	13
130	0xb9	-71
131	0x49	73
132	0x0c	12
133	0xfa	-6
134	0xd1	-47
135	0x0a	10
136	0xb9	-71
137	0x0e	14
138	0x18	24
139	0x39	57
140	0xf0	-16
141	0x05	5
142	0xe5	-27
143	0x18	24
144	0x36	54
145	0xf7	-9
146	0xcc	-52
147	0x27	39
148	0x2c	44
149	0xb0	-80
150	0x3c	60
151	0xec	-20
152	0xd9	-39
153	0x36	54
154	0x04	4
155	0xa1	-95
156	0xff	-1
157	0xbb	-69
158	0x19	25
159	0xac	-84
160	0x07	7
161	0x03	3
162	0x2f	47
163	0x3c	60
164	0x28	40
165	0x1a	26
166	0x96	-106
167	0xcd	-51
168	0xe0	-32
169	0x09	9
170	0xf2	-14
171	0x3f	63
172	0xf3	-13
173	0xef	-17
174	0x1f	31
175	0x03	3
176	0xc1	-63
177	0xd5	-43
178	0xe0	-32
179	0x3c	60
180	0x2b	43
181	0x15	21
182	0x17	23
183	0xb0	-80
184	0xc1	-63
185	0x3d	61
186	0xb0	-80
187	0xe4	-28
188	0x03	3
189	0xca	-54
190	0x9c	-100
191	0x04	4
192	0xfc	-4
193	0xcc	-52
194	0x2d	45
195	0x1d	29
196	0xc7	-57
197	0xef	-17
198	0xa1	-95
199	0x22	34
200	0x04	4
201	0x01	1
202	0x1c	28
203	0xed	-19
204	0xba	-70
205	0x96	-106
206	0xd4	-44
207	0x02	2
208	0xfd	-3
209	0x3f	63
210	0x2d	45
211	0xf9	-7
212	0xd8	-40
213	0x2b	43
214	0xe7	-25
215	0xb1	-79
216	0x02	2
217	0x10	16
218	0xe2	-30
219	0xf7	-9
220	0xe2	-30
221	0x26	38
222	0xe7	-25
223	0xb1	-79
224	0xeb	-21
225	0x23	35
226	0x00	0
227	0xca	-54
228	0xa5	-91
229	0xf9	-7
230	0x19	25
231	0xbb	-69
232	0xde	-34
233	0x13	19
234	0x44	68
235	0xe1	-31
236	0xb6	-74
237	0xc4	-60
238	0xf9	-7
239	0x34	52
240	0x8b	-117
241	0xb1	-79
242	0x10	16
243	0x04	4
244	0x37	55
245	0xb1	-79
246	0x4c	76
247	0x32	50
248	0xfc	-4
249	0xca	-54
250	0xd1	-47
251	0x99	-103
252	0xd0	-48
253	0x2c	44
254	0xdb	-37
255	0xee	-18

squeezenet/conv10/Conv2D i1 [2, 1, 1, 256]
0	0xd2	-46
1	0x46	70
2	0x2b	43
3	0x33	51
4	0xf0	-16
5	0x26	38
6	0x2a	42
7	0x3d	61
8	0xeb	-21
9	0xdd	-35
10	0x2b	43
11	0x27	39
12	0x05	5
13	0xe7	-25
14	0x35	53
15	0xf1	-15
16	0xf8	-8
17	0xf4	-12
18	0x2c	44
19	0xef	-17
20	0xc0	-64
21	0x28	40
22	0xd4	-44
23	0xd4	-44
24	0xbe	-66
25	0xf2	-14
26	0x1a	26
27	0x37	55
28	0xf8	-8
29	0xba	-70
30	0x4a	74
31	0x2d	45
32	0xc5	-59
33	0xe6	-26
34	0x25	37
35	0xef	-17
36	0x33	51
37	0x4d	77
38	0x42	66
39	0xbf	-65
40	0xd9	-39
41	0x0f	15
42	0xc6	-58
43	0x0e	14
44	0x3f	63
45	0xf3	-13
46	0x1a	26
47	0xd8	-40
48	0x4a	74
49	0xee	-18
50	0x33	51
51	0x0f	15
52	0xe2	-30
53	0x23	35
54	0x3b	59
55	0xcf	-49
56	0x19	25
57	0x06	6
58	0xd2	-46
59	0xb0	-80
60	0x27	39
61	0xca	-54
62	0x0f	15
63	0x27	39
64	0xff	-1
65	0x07	7
66	0x1a	26
67	0x12	18
68	0xf7	-9
69	0xf5	-11
70	0x08	8
71	0xff	-1
72	0xff	-1
73	0x06	6
74	0xce	-50
75	0x04	4
76	0xc8	-56
77	0x2a	42
78	0xd6	-42
79	0x00	0
80	0x11	17
81	0xe8	-24
82	0x3e	62
83	0xe7	-25
84	0xfb	-5
85	0xd9	-39
86	0xc9	-55
87	0x33	51
88	0x1d	29
89	0x41	65
90	0xf9	-7
91	0x22	34
92	0x0e	14
93	0x3b	59
94	0xc4	-60
95	0xed	-19
96	0x39	57
97	0x3a	58
98	0x3a	58
99	0x2c	44
100	0xd4	-44
101	0x33	51
102	0x1e	30
103	0x40	64
104	0x28	40
105	0xd7	-41
106	0xf2	-14
107	0xe4	-28
108	0xe4	-28
109	0xf7	-9
110	0x0f	15
111	0xf0	-16
112	0x24	36
113	0x29	41
114	0x09	9
115	0x00	0
116	0xfb	-5
117	0x1a	26
118	0xd0	-48
119	0x57	87
120	0xbd	-67
121	0xe8	-24
122	0xf7	-9
123	0x35	53
124	0x2e	46
125	0x28	40
126	0x0d	13
127	0xf9	-7
128	0xec	-20
129	0x2d	45
130	0xfa	-6
131	0x16	22
132	0xd6	-42
133	0x10	16
134	0x0f	15
135	0xf6	-10
136	0xdc	-36
137	0xf3	-13
138	0xef	-17
139	0xb1	-79
140	0x34	52
141	0x19	25
142	0xc3	-61
143	0xa3	-93
144	0xff	-1
145	0x41	65
146	0xda	-38
147	0x1b	27
148	0x1b	27
149	0xd8	-40
150	0x16	22
151	0xf3	-13
152	0xf3	-13
153	0xea	-22
154	0x81	-127
155	0xf5	-11
156	0x9d	-99
157	0x1c	28
158	0x01	1
159	0xcf	-49
160	0xff	-1
161	0xd8	-40
162	0xaf	-81
163	0x0b	11
164	0xd9	-39
165	0x01	1
166	0x0c	12
167	0xec	-20
168	0x0b	11
169	0x0b	11
170	0x0d	13
171	0xeb	-21
172	0xfb	-5
173	0xd0	-48
174	0x0f	15
175	0xec	-20
176	0x0b	11
177	0x15	21
178	0x11	17
179	0xf8	-8
180	0x16	22
181	0x04	4
182	0xd4	-44
183	0x0a	10
184	0x02	2
185	0x1e	30
186	0x10	16
187	0x45	69
188	0x3a	58
189	0xf4	-12
190	0xc4	-60
191	0x1c	28
192	0x28	40
193	0x27	39
194	0x0e	14
195	0x24	36
196	0x48	72
197	0x42	66
198	0x27	39
199	0x12	18
200	0xeb	-21
201	0xfd	-3
202	0xc5	-59
203	0x29	41
204	0x1a	26
205	0xe8	-24
206	0x30	48
207	0x07	7
208	0xd2	-46
209	0xc2	-62
210	0xd3	-45
211	0x34	52
212	0x0d	13
213	0x1a	26
214	0xe5	-27
215	0x3c	60
216	0xf0	-16
217	0x2a	42
218	0x0e	14
219	0xdb	-37
220	0x4e	78
221	0xc6	-58
222	0xec	-20
223	0x0d	13
224	0x38	56
225	0xf0	-16
226	0x1b	27
227	0x28	40
228	0xff	-1
229	0xbc	-68
230	0xd7	-41
231	0xcf	-49
232	0xd6	-42
233	0x38	56
234	0xc7	-57
235	0xce	-50
236	0x09	9
237	0x21	33
238	0xcb	-53
239	0xeb	-21
240	0xe1	-31
241	0x1f	31
242	0xcd	-51
243	0xde	-34
244	0xb7	-73
245	0x3d	61
246	0xda	-38
247	0x17	23
248	0xf0	-16
249	0xf9	-7
250	0x32	50
251	0xd3	-45
252	0xc1	-63
253	0x2e	46
254	0x1a	26
255	0xe6	-26
